data.pth (torch, 6999 bytes, 6 tensors)

l1.weight f4 [8, 91]
00000000: f281 b3be 4d58 953c 1edb 58bd e46d d63e
00000010: 21bc 893e e54e 953d c54b 213d 7b5f ddbd
00000020: 783d 293f 24ac 4a3f b698 c13e 6f9e c1be
00000030: 7cd6 7abe ae79 323f 885d b63d 95c6 19be
00000040: 6a1a a73e 2742 dcbd 4639 e5be 77db a13e
00000050: 2a59 f1be 6754 013f 859c 87be ca50 363f
00000060: 07cb acbe a22a 5d3e 051a fc3e 3913 bcbd
00000070: 2445 b3be ae0e 9ebe 176e 0f3f 404e 153e
00000080: e44d 2e3f faa1 71be 17ff 3d3f fa9e 4e3f
00000090: 4ceb 1f3e babb 77bd c667 a8bd d6a3 c63e
000000a0: 010f a13d 0d0a 98bb 175c f03e d9e1 92be
000000b0: 13bd db3e 7e75 b6be 65d8 263e 84c0 95bd
000000c0: 1a48 0cbd 9407 f0be ffa4 f2bd 38d1 dabe
000000d0: b926 efbd 8b73 363e 9d87 263e cb8f fb3e
000000e0: bc69 dd3d 10d4 32be 9d9b 8e3d f8fb 473e
000000f0: 4da5 2f3d a366 05be c9cc c8be 979b 143e
00000100: 132f 3c3e 77cf 64bb acd2 5a3e 7e59 cd3e
00000110: 9929 e2bd 03c3 2a3e 3d54 71bf b23f a6be
00000120: a09e 863d b4cb ff3e 181e 613e 4c5f f63d
00000130: 8426 343f 733b 163e ef7d e13d bb1a 1bbf
00000140: 3c01 a63e 5071 39be 3dae 62be 5792 083f
00000150: 0ae8 073f 893d c53e 446d 763f f25a 07bf
00000160: 9ca4 36be 1ee2 9b3e 8a48 cb3e 07eb 733e
00000170: ffa3 1c3f 92c7 2f3f d7d2 c33e d9b6 14bf
00000180: 5db3 1cbc e179 34be 981c acbe 7cd3 b03e
00000190: a973 a23e 5695 053a e476 a33e d0cb c63e
000001a0: 090d c0be 667d a6be 2e4e fe3e 7495 043f
000001b0: a7dd 20be 04d6 013f a338 203e d0cb 4b3f
000001c0: 36f2 043f 4fe3 873e 03ee 7e3e 84ee 133f
000001d0: 05e2 e73e 01d3 b43b 21be 0a3f 23cb c23e
000001e0: 4638 a83e 1144 f53e ce22 c8be 206a 2f3f
000001f0: 9933 1e3f def5 343f 5fdc 403f e19e 333f
00000200: b092 debd 7b7c 2e3e 49af b53d 03ee 97be
00000210: 0338 053f 513f edbe 3bfa 883d 8f55 eb3e
00000220: a490 8f3e 675a 8abe 13da cd3e 8d18 8cbe
00000230: cc4c e6be 137e 86bc 2873 7d3e 091a 953d
00000240: 8311 153d fb8b ed3e 3ed2 a83e 7281 07bf
00000250: 55aa 1ebe 3eaf e7be 4b6e 1fbe c3d1 373f
00000260: 757a 293f c6e4 113f 61c9 87be 2c8e d13e
00000270: 6cc4 abbd 12cb 023f e458 98bc c03a 66be
00000280: 5d42 eebe 566f 0d3f 514e c03d 62c5 db3d
00000290: 801b aebe e3ca fe3e e7bf c43e 2844 473f
000002a0: 319f 113b 5864 0abf c38c 9bbe aee0 573e
000002b0: 42d1 c63d 1c01 41be 3fc9 503f b70c 1c3f
000002c0: f578 363f 0e37 47bf d429 0d3f ea84 683e
000002d0: 2c03 973e 8b1e 493c 84ed b2bc a87c cdbc
000002e0: 3cd9 bd3d db1e b03d f009 1bbd d138 813d
000002f0: f09e 1f3c 7a5b 9abd 7ada 80bd 08ec 66bd
00000300: aa40 b3bd fc49 0abd b04a 8bbc d4da b1bd
00000310: dc23 cd3c 1637 95bd 19d2 6fbd a28a 10bd
00000320: ae69 85bd dec1 a4bd 73fc d2bd bc4d ffbc
00000330: 36ff 6a3d c0ac 28bb ee7a 8abd 5066 d6bc
00000340: 27bf d2bd 3c78 ad3c 9400 c6bc 1a0e 5ebd
00000350: 4ae5 23bd 6123 9bbd 9e1d 693d 6aa0 c9bd
00000360: 6084 353c 7238 413d dd56 c0bd fe99 273d
00000370: 7076 453c 2cc8 f0bc e364 9e3d fd5c 77bd
00000380: 6aeb 59bd 903f c4bd 199d bcbd 5f26 9e3d
00000390: 806d 87bb 6a65 763d 0f84 8b3d e5fa d33d
000003a0: cf11 903d ace5 c93c 0442 bbbc 9f84 afbd
000003b0: 1244 743d 88cb b93c 6258 a4bd 18e3 84bc
000003c0: c904 993d d051 9ebc 7009 8f3d 9244 70bd
000003d0: b490 80bd c648 653d 8045 41ba e17c bcbd
000003e0: bdd6 c23d ae8d 2c3d 14d4 f63c 817c 37bd
000003f0: 46cb c4bd 9e21 563d ae85 1f3d 5398 b83d
-0.35060078 0.018230582 -0.05294334 0.41880715 0.26901343 0.072904386 0.0393789 -0.10809227
0.6610942 0.79168916 0.37811822 -0.37816188 -0.24495882 0.6971692 0.089045584 -0.1501716
0.3263734 -0.10754805 -0.4477026 0.3161275 -0.4713834 0.5051941 -0.26486602 0.71217024
-0.33748648 0.21598294 0.492386 -0.09183354 -0.35013688 -0.30870575 0.5602736 0.14580631
0.680876 -0.23596945 0.7421736 0.8071133 0.15617102 -0.060481764 -0.08222918 0.38796872
0.0786419 -0.00463987 0.4694526 -0.28687933 0.4291769 -0.35636514 0.16293485 -0.0731211
-0.03424845 -0.46880782 -0.11847877 -0.42737746 -0.11677308 0.17817514 0.1626267 0.49133143
0.10811183 -0.17463708 0.06963275 0.19529712 0.042882252 -0.13027434 -0.3921874 0.14512478
0.18377332 -0.0034913698 0.21369427 0.4010734 -0.110430904 0.16675954 -0.9426916 -0.3247047
0.06573224 0.499601 0.21984136 0.12029895 0.7037127 0.14671116 0.11010348 -0.6058766
0.32422817 -0.18109632 -0.22136779 0.53348297 0.5308844 0.3852351 0.96260476 -0.52873147
-0.17836231 0.3044595 0.3970378 0.23820125 0.6118774 0.68663895 0.38246796 -0.58091503
-0.009564248 -0.17624618 -0.33615565 0.3453635 0.31728867 0.00050958 0.31926644 0.38827372
-0.37509945 -0.32517546 0.4966902 0.5179055 -0.15709554 0.50717187 0.15646605 0.7960787
0.51932085 0.2654061 0.24895482 0.5778582 0.45289627 0.0055183177 0.54196364 0.38045606
0.32855433 0.47903493 -0.39089054 0.6852131 0.6179748 0.70687664 0.7533626 0.70164305
-0.10867822 0.17039673 0.088713236 -0.29673776 0.5203859 -0.4633737 0.06688353 0.45963714
0.2804004 -0.27022097 0.4020544 -0.2736248 -0.44980466 -0.016417539 0.2475096 0.072803564
0.036393654 0.4639586 0.32972902 -0.5293189 -0.15494664 -0.45250887 -0.15569417 0.71804446
0.6620248 0.56989706 -0.26520827 0.4092878 -0.08387074 0.5109111 -0.018597074 -0.22483349
-0.46535006 0.5524801 0.09389938 0.10731007 -0.34005356 0.49764165 0.3842766 0.77838373
0.002222013 -0.5405936 -0.3038083 0.21081802 0.097078815 -0.1884808 0.8155708 0.609569
0.71278316 -0.7781838 0.5514195 0.22706953 0.29494607 0.012275348 -0.021841772 -0.025083855
0.0926995 0.08599635 -0.037851274 0.06309665 0.0097424835 -0.07536979 -0.06291671 -0.05637744
-0.08752568 -0.033761963 -0.017003387 -0.08684316 0.025041513 -0.072858974 -0.058549974 -0.03528846
-0.065142974 -0.0804479 -0.10302057 -0.031164996 0.057372294 -0.0025737733 -0.06761728 -0.026171833
-0.10290366 0.021175496 -0.024170198 -0.054212667 -0.04001359 -0.07575107 0.05691301 -0.0984505
0.011078924 0.04717297 -0.09391568 0.040918343 0.0120521635 -0.029392324 0.07734086 -0.060391415
-0.053203024 -0.09582436 -0.092096515 0.077221625 -0.0041329265 0.06015531 0.068122976 0.10350589
0.07034647 0.024645649 -0.022858627 -0.08570217 0.05963523 0.02268006 -0.0802467 -0.016221568
0.07471616 -0.01932612 0.06984222 -0.058659144 -0.062776 0.055977605 -0.0007372722 -0.09203506
0.09513614 0.042127304 0.030130424 -0.04479647 -0.09609084 0.052278154 0.038945846 0.090134285

l1.bias f4 [8]
00000000: a555 693f 06b5 693f af0f 08be 8a4c 603f
00000010: 55b0 853f 5fc6 423f 5dbf 503f 6f6b f83e
0.9114631 0.91291845 -0.13287233 0.8761679 1.0444437 0.7608394 0.81542 0.48519465

l2.weight f4 [8, 8]
00000000: 2e9a 96bf a43f 9f3f 5098 003e 2cda 50bd
00000010: 515a 31bf 2783 6a3f b97a a53f 3ff6 14be
00000020: 0f74 543f 5021 45be f0ed cd3c 8d2e 82be
00000030: 3282 8f3e 14f4 32bf b2a3 bd3f 945f ee3f
00000040: 1dda a73d 12d9 54be ac3b 84be 7705 733f
00000050: b4cf ac3e ae53 d03f 8710 0cbf cac9 513e
00000060: 867a b43f 20fb bb3f 175a 3a3e b8f5 bf3f
00000070: f198 8dbf f403 13be e815 89be 5a43 723e
00000080: 0401 94be ab93 223f 7856 063e d1f0 6ebf
00000090: fbd4 9a3f 6df3 5d3f 8f5e 7e3f c17e 89bf
000000a0: c796 8c3f 7b21 243f 8a5d 033d c2f1 173f
000000b0: 9bbe a23f 33af dabe 3b3a 413f 52b2 86bf
000000c0: f16f 21bf 8f11 8f3f d027 ba3d 50a1 88be
000000d0: f1e6 7a3f 51b9 a83f 699c 9dbe 9162 0dbe
000000e0: 58ad 063f 34a2 50be d868 5ebe 7531 52bc
000000f0: e01a d83e b554 45bf 3d86 e83e 757a 3d3f
-1.1765802 1.2441297 0.12558103 -0.050989315 -0.69278437 0.9160637 1.2928077 -0.1454706
0.8298959 -0.19250989 0.025137872 -0.2542614 0.2802902 -0.69903684 1.4815581 1.8622918
0.08195899 -0.20785931 -0.25826776 0.94930214 0.33752215 1.6275537 -0.5471272 0.20487133
1.4099891 1.4686012 0.18198429 1.4996862 -1.1062299 -0.14356977 -0.26774526 0.23658505
-0.28907025 0.63506573 0.13118923 -0.93336207 1.2096246 0.86699563 0.99363035 -1.0741807
1.0983514 0.6411359 0.032071628 0.5935327 1.2714418 -0.4271179 0.7547948 -1.0523169
-0.63061434 1.1177233 0.09089625 -0.26685572 0.9800864 1.3181554 -0.30783394 -0.13807131
0.5260825 -0.20374376 -0.21719682 -0.012829174 0.42208004 -0.7708238 0.45414916 0.7401498

l2.bias f4 [8]
00000000: 8cda e13d 9b2c 803e 105e 0e3f 4e8e 023f
00000010: e69a 363f 0619 413f 6b69 1a3e 8c71 e5bd
0.11028013 0.2503403 0.5561228 0.5099839 0.71330106 0.7542881 0.15079276 -0.11203298

l3.weight f4 [15, 8]
00000000: 13b9 b9bf 2879 96bd be20 dd3d 97ee 333f
00000010: 72fe a0bf 0d3e 423e f36b f4bf fdea 90bd
00000020: cef0 91bf ac3b 44bd d786 093f 03b3 8dbf
00000030: 1d5d a43d 0128 93bf 01a3 1a3f 4cbd dd3d
00000040: e107 383f d5f1 803e 6321 c0bf 279f 853d
00000050: eee9 84be 264a fdbe 47eb 0fbf c030 03bd
00000060: 8bf4 bcbc 2610 28bd 8cdf bbba fc38 c13e
00000070: ca6c 91bf d862 19bf c843 d53d fccd a3be
00000080: 643b 00c0 d63e 84bf 4286 8c3f 3611 a0be
00000090: 7c27 403e 44cc c83e 7b0f 643d 23ad d8bf
000000a0: 3d9a 71bf a462 afbc 772b 91bf a90f 38bc
000000b0: f36a 273f 7105 4d3f 5b27 e6be ff32 4cbd
000000c0: c73a b93e b7d9 c2bf ffa8 973e acab 9a3d
000000d0: 7a07 cb3d 6259 bcbf 9c82 bf3e fa3a 95bf
000000e0: 3558 15be c349 2a3f 01ff a73e 221d 71bf
000000f0: b1ed 4abe b4d0 81bf f499 30bf ffc3 633e
00000100: 4919 2a3f c68a 8dbd 88ff aa3e 5c20 5fbf
00000110: 1ee0 e53d 8d79 9abf 95a7 0fbe 0a38 f1bf
00000120: f062 c43e b0f6 67bf 265d a9be 8f92 523e
00000130: 11a2 2b3e ae47 88bc d1f0 e5bd 8aff dfbf
00000140: 977b 843e ef54 743e 6465 30bf 8634 ecbf
00000150: 6218 af3e 3feb 823d d39f f23b 3ba3 03be
00000160: 105e cabc c825 bebf 519c 973e bd8f f3bf
00000170: 703e 423f 7c1d d83d 7ebb 063f c810 9cbf
00000180: 6826 2ebe 879c 4f3f fc65 a1bf 871d cbbf
00000190: 7c4c 3a3e b997 9b3e 1b63 d6bf d963 e73e
000001a0: 3a27 15bf a785 9ebf 6530 8c3c d11e 0a3f
000001b0: 4310 8dbf 99ec 0d3f 99bb 69be b6d1 bfbf
000001c0: 1375 a8bf f922 4c3f 32be 93bf 00f4 583e
000001d0: 61d4 9dbf 719b 943e e95b d0bf 71cf e63e
-1.4509605 -0.073473275 0.10797261 0.70285934 -1.257765 0.18968983 -1.9095443 -0.070760705
-1.1401613 -0.04790847 0.53721374 -1.1070255 0.080255724 -1.1496583 0.60404974 0.10827121
0.7188702 0.25184503 -1.5010189 0.065244965 -0.25959724 -0.49470633 -0.5621838 -0.032028913
-0.023065826 -0.041031025 -0.001433359 0.37738788 -1.1361325 -0.5991645 0.10413319 -0.3199309
-2.003625 -1.0331676 1.0978472 -0.3126313 0.18765062 0.39218342 0.055678826 -1.6927837
-0.94375974 -0.02140934 -1.134139 -0.011234202 0.65397567 0.8008643 -0.449519 -0.04985332
0.36177656 -1.5222691 0.2962112 0.07552275 0.099135354 -1.4714777 0.37404335 -1.1658623
-0.1458443 0.665188 0.3281174 -0.9418508 -0.19817235 -1.0141816 -0.68984914 0.22242735
0.6644483 -0.069112346 0.3339808 -0.8715875 0.112243876 -1.2068344 -0.14028771 -1.8845227
0.38356733 -0.9061079 -0.3307888 0.2056372 0.16761042 -0.016635742 -0.11227573 -1.7499859
0.25875542 0.23860525 -0.6890471 -1.8453529 0.3419829 0.06392526 0.0074043064 -0.12855236
-0.024703056 -1.485528 0.29611447 -1.902824 0.7587652 0.10552499 0.5262984 -1.2192621
-0.17006838 0.81098217 -1.2609248 -1.5868386 0.18193239 0.30389193 -1.6748995 0.45193365
-0.5826298 -1.2384537 0.01711292 0.5395327 -1.1020588 0.55439144 -0.22825469 -1.4985874
-1.3160728 0.79740864 -1.1542418 0.21186829 -1.2330438 0.29024842 -1.6278049 0.4508014

l3.bias f4 [15]
00000000: d674 813c 609a 593e c748 cabc 1fde 693e
00000010: 87dc f63e 57ef b83e 97c6 c2be 9ff0 623d
00000020: 0fb2 ccbd c328 c6be 50cb 87be 2dad 7a3e
00000030: 53f7 8f3e 0db6 97be b66f a63e
0.015802782 0.21250296 -0.024692906 0.22838639 0.48215124 0.36120102 -0.38042137 0.055405255
-0.099948995 -0.38702974 -0.26522303 0.24480124 0.2811838 -0.2963108 0.32507104
