data.pth (torch, 4823 bytes, 6 tensors)

l1.weight f4 [8, 51]
000000 c0 2b 32 3f 66 c5 ff 3e f6 0c 4b 3e 3e f9 51 be
       0.6959801 0.4995529 0.19829163 -0.20505235
000010 ce 43 ad be 14 e8 0a bf 20 df 28 be 8b c9 f8 3e
       -0.33840793 -0.54260373 -0.16491365 0.48591265
000020 81 aa 9f be 3a 78 25 3f 1f ad 7e 3e 3a 28 58 3f
       -0.31184772 0.64636576 0.24870728 0.8443638
000030 b0 eb 00 3f d2 d3 ee 3e c0 5e 48 be 47 ef ba 3e
       0.5035963 0.4664598 -0.19567394 0.3651068
000040 fa 03 00 bf fa 14 dd 3e ba ed 01 bf 02 a5 01 bf
       -0.5000607 0.43180066 -0.50753367 -0.50642407
000050 c3 9d 99 be 12 f5 fd 3e 98 af a9 be 8a 41 c5 3e
       -0.30003175 0.49601036 -0.3314178 0.38526565
000060 f3 fd be bd 4e 2f f7 3e 00 07 9b 3e ce fe 38 3f
       -0.09325781 0.48278278 0.30278778 0.722638
000070 cc 34 b7 3e 01 60 0a 3f ab c5 a8 3e 13 3e c9 bd
       0.35782468 0.5405274 0.3296331 -0.09826293
000080 dc da f8 3e 8c ad 3b 3f fc 25 82 bd 45 83 a2 be
       0.48604476 0.73311687 -0.06354901 -0.31740776
000090 5b 8e 37 3f 4a b8 8c 3f e1 8b 2d 3f 61 fa 73 bd
       0.7170159 1.099374 0.67791563 -0.05956495
0000a0 71 42 d9 3e 28 c7 bb bd 14 b9 1d 3e 88 57 dd 3e
       0.42433503 -0.091688454 0.15402633 0.43230844
0000b0 3c 00 98 3d 94 a4 04 3f fe 7e 11 bb 82 82 08 3f
       0.0742192 0.51813626 -0.0022200937 0.5332414
0000c0 46 14 fd 3d f7 ae c2 3e 25 ab 38 be 69 9f 34 bd
       0.123573825 0.38024113 -0.18034036 -0.044097338
0000d0 ca 67 c7 bd 28 4b af be 0d 29 e4 3e dd e7 dd 3e
       -0.09736593 -0.34237027 0.4456257 0.4334096
0000e0 22 06 22 3f ac 41 c4 3e db ae 7c 3f cb 7f e9 3e
       0.6329061 0.38331354 0.9870431 0.4560531
0000f0 39 f0 6e be e9 c7 0d 3c f2 35 5a be 7c dc 04 bc
       -0.23333825 0.008653619 -0.21309641 -0.008109208
000100 ad 46 7e be c8 f4 da 3e 06 d3 28 3f 99 e9 b1 3e
       -0.24831648 0.42764878 0.65946996 0.34748533
000110 96 28 1b be 2a ee af 3e 41 32 1b 3f a4 f4 a1 3d
       -0.15152201 0.34361392 0.60623556 0.079079896
000120 4b 4f 26 3e 03 86 04 3f 8b b4 5f be b3 aa 5c 3e
       0.16241185 0.51766986 -0.21846215 0.21549492
000130 4d fc 3b be 8f 1b 20 3f a0 c4 89 be 97 ed 76 3d
       -0.18357964 0.6254205 -0.26907825 0.060285177
000140 7e 60 d8 be e6 57 b9 bd 2d 8f 27 3c 7d ae fa 3e
       -0.42261118 -0.090499684 0.010227007 0.4896125
000150 d7 69 bb be a4 d0 01 3c 1f d4 20 3f ff 4a 16 be
       -0.36604187 0.007923279 0.6282367 -0.14677046
000160 05 04 21 bf be ad 36 be 3f 62 ec 3d ae 07 50 be
       -0.6289676 -0.17839715 0.115421765 -0.2031543
000170 aa 49 0e 3f 13 0b 8e bd e2 fa 43 be 4d 5e 4b be
       0.5558115 -0.06935706 -0.19138673 -0.19860192
000180 cf 1f 3b be 08 22 bc 3d 06 ef 3c be e6 e1 69 3f
       -0.18273853 0.091861784 -0.18450555 0.9136032
000190 f3 d0 08 3f 18 b5 d4 3e 1f 56 8f 3d 91 2b 10 bd
       0.5344383 0.41544414 0.06998848 -0.0351978
0001a0 9a a5 b2 3e 53 fa 14 be 96 78 b1 3d 21 64 84 be
       0.3489197 -0.14548616 0.08665578 -0.25857642
0001b0 90 9f ec bd f9 45 4c 3f 74 1e c3 3e 91 64 0f 3d
       -0.11553872 0.7979427 0.3810917 0.035008017
0001c0 93 e6 93 3e 34 a7 e1 3d d7 9e bd b7 5f fd 53 3e
       0.28886852 0.110182196 -2.2604521e-05 0.20702122
0001d0 ff 2e 61 3e 36 94 58 3f d6 46 f5 3e 24 b3 0c be
       0.21990584 0.8460115 0.47905606 -0.13740212
0001e0 64 b8 c9 3e ee 58 ff 3e f5 31 fa 3e 41 73 ae 3e
       0.3939849 0.49872535 0.4886624 0.34072307
0001f0 26 e6 64 be 90 c2 e5 3e dc d1 c2 3e 2b 35 b5 bc
       -0.2235342 0.44875002 0.38050735 -0.022120079
000200 66 4e c2 3e 9e d4 bc 3c fa 1f f0 3d c4 41 7c 3d
       0.37950438 0.023050603 0.11724849 0.061586156
000210 85 67 41 3e 91 c2 b6 3e 35 3c b5 3e 28 f7 32 3d
       0.18887146 0.35695317 0.35397497 0.043692738
000220 2b a2 06 3f a6 e3 56 bd d0 0c 11 3d 63 74 00 bf
       0.525912 -0.052463196 0.03541261 -0.5017759
000230 4d de aa 3d eb e2 d7 3e 19 5b 02 3f 1c 54 a0 be
       0.08343182 0.42165312 0.50920254 -0.3131417
000240 e9 30 0c 3f df d5 32 3f 28 73 14 3f 56 18 28 3d
       0.5476213 0.6985759 0.57988214 0.041038834
000250 18 14 b9 3e 9b ac 38 3d 10 9f f1 be c4 27 59 3d
       0.36148143 0.045086484 -0.47191668 0.05301644
000260 c8 2f 82 bd 60 47 75 bc fc 53 a4 bc 6a a8 ba bd
       -0.0635677 -0.01497063 -0.020059578 -0.09114154
000270 a0 9a ff 3c 54 2e d7 bc 53 33 53 3d 42 89 c7 3c
       0.03120166 -0.026267208 0.05156262 0.024357442
000280 d0 c0 cf bd 6f aa ea bd eb 4b d9 3d 39 0d 3a bc
       -0.10144198 -0.11458289 0.10610183 -0.011355692
000290 0c 08 1f 3d cc 1a b4 3d ab 24 78 3d bc b6 b5 bd
       0.038826033 0.087941736 0.060581844 -0.088727444
0002a0 18 d5 8e 3d 44 7a b7 3d 45 2e c9 bd 74 88 47 3d
       0.06974238 0.08958867 -0.09823278 0.048714116
0002b0 80 2b e5 bd ba bf 01 bd 2b 75 eb bd 7e 0b de bb
       -0.111899376 -0.031676985 -0.114969574 -0.0067762723
0002c0 be 01 a6 bd 36 25 bb 3d 9c 02 0d bd cc c7 03 3d
       -0.08105801 0.09137957 -0.034426317 0.032172963
0002d0 9e 31 a7 3d 18 5d e8 3c 7b d6 cf 3d 60 40 af 3c
       0.081637606 0.028364703 0.10148331 0.021393001
0002e0 9e 95 8b bd fa dc c6 bd 8a a1 34 bd 0a 2e 02 bd
       -0.068156466 -0.09710117 -0.04409937 -0.031782188
0002f0 98 75 77 bc 2a 9a 7f bd a2 65 f3 bd 58 32 e7 bc
       -0.01510372 -0.06240288 -0.11884619 -0.028222248
000300 90 65 17 3c f3 a2 86 bd c5 1e 00 3e ba b3 ea bd
       0.009240523 -0.06574049 0.12511738 -0.11460061
000310 f0 00 14 bc a0 87 9e bb 7c d7 0f bd a0 d7 2f 3d
       -0.009033427 -0.004837945 -0.03511761 0.042930245
000320 aa 1a 9c bd 6f 97 b3 3c 05 46 46 3d 62 6a a6 3b
       -0.07622273 0.021922795 0.04840662 0.0050786
000330 18 f9 ed 3e 99 11 d9 3e b9 28 d3 3c e9 05 02 3f
       0.46479106 0.42396238 0.025776254 0.5079027
000340 21 ae 1c be a9 e3 29 3e 14 09 e5 3e 99 2b 56 bd
       -0.153008 0.16590752 0.4473349 -0.05228767
000350 49 9f 91 be 5d 92 99 be 1b 2c 74 3e e4 bd ec bd
       -0.28441837 -0.2999448 0.2384495 -0.11559656
000360 39 0d bb bd d0 68 6d bd bb 1f 4c be e1 b1 df 3e
       -0.091333814 -0.057961285 -0.19933979 0.43690398
000370 d6 b7 fa be 2a 86 d6 3e 62 fe fc be 67 73 00 bf
       -0.4896838 0.41899234 -0.4941283 -0.5017609
000380 9d 39 29 bf bd 72 40 3e d5 b6 ad 3e a0 09 a5 3c
       -0.66103536 0.18793769 0.33928552 0.020146191
000390 92 00 93 bd 52 2a 15 bd 29 78 ba be b8 43 42 3d
       -0.07177843 -0.036417313 -0.364198 0.047427863
0003a0 7e e9 9d 3e 9a 37 b8 bc 23 61 a6 be 91 74 8c be
       0.30842203 -0.02248745 -0.32495984 -0.27432683
0003b0 0e 84 9c be 98 7c f8 bd 86 fa a7 bd 7b 3f 97 3e
       -0.305695 -0.12133139 -0.082020804 0.2954062
0003c0 fa 30 13 bd ea 27 27 3f c4 5a 01 3f bd 7c 1c be
       -0.03593538 0.6529528 0.5052912 -0.15281959
0003d0 17 b0 6a be 14 ba 00 3f 5e a4 88 bd 94 ad 88 be
       -0.22918735 0.5028393 -0.066719756 -0.2669493
0003e0 64 b4 59 be 9b d3 2c be af c8 58 bd 84 96 90 bc
       -0.2126022 -0.16877596 -0.05292576 -0.017649896
0003f0 29 1b 5d 3f 9e 37 0f 3f ff 5d a6 3e 2b 27 ee bd
       0.8636957 0.5594424 0.32493588 -0.116285644

l1.bias f4 [8]
000000 cf f0 01 3f 72 77 6a 3f c0 6b 2d 3f 5f 09 14 be
       0.5075807 0.9158851 0.6774254 -0.144567
000010 ec 83 02 3f d0 e4 1d 3f cf 6a 12 3f bd 61 0d 3f
       0.50982547 0.61677265 0.57194227 0.5522726

l2.weight f4 [8, 8]
000000 ac dc 9d 3f 4f 7a 80 be 7a 11 8e 3f de 9c e1 39
       1.2332969 -0.25093314 1.1099083 0.0004303222
000010 c1 bd 87 3e 19 fa bc be 17 94 75 bf 1e 55 a5 3f
       0.26511958 -0.3690956 -0.9592909 1.2916601
000020 0d 85 03 bf 25 cd 96 3f 16 20 34 3f 39 19 7f 3e
       -0.51374894 1.1781355 0.7036146 0.24911965
000030 d4 9f 9c be e5 99 ae 3e e2 da a3 3f 43 71 df bd
       -0.3059069 0.34101787 1.2801173 -0.10910275
000040 66 9d e9 bd 21 95 33 3e 16 24 5f be 3a 68 f9 bd
       -0.114069745 0.17537357 -0.2179111 -0.12178083
000050 e3 78 6b be 57 dc a9 be a6 f1 94 be fb 02 97 bd
       -0.22995333 -0.33175918 -0.29090613 -0.07373615
000060 38 42 56 bf 9d 21 84 3e 2b 64 69 3f 84 6f 9a 3e
       -0.8369479 0.25806895 0.9116847 0.30163205
000070 c2 bc 3c bf 69 f9 8b 3f 14 1f 88 3f c2 56 2c be
       -0.7372552 1.0935489 1.0634484 -0.1682997
000080 c9 25 17 3f 02 4c 8e bf 3f d6 3f 3f 1e 7e 49 3e
       0.5904203 -1.1116946 0.7493629 0.19677016
000090 79 b6 56 bf e2 48 46 3f d6 74 db be eb d3 2c 3f
       -0.8387218 0.7745496 -0.42862576 0.6751086
0000a0 b6 0c 51 3e 69 95 8a 3f ed f6 a0 3c a5 d3 8f 3d
       0.20415005 1.0826846 0.019648993 0.0702279
0000b0 c7 6c 84 3f f3 8f 1e bf d6 cb 38 be 60 95 3b 3e
       1.0345696 -0.619384 -0.18046507 0.18318701
0000c0 18 1b 6d 3f 2b 71 e9 3d 35 6b 2b bf c6 22 2e 3e
       0.92619467 0.11398538 -0.6696046 0.17005453
0000d0 26 5d 91 3f fd c9 95 3e dd ad 39 3c 81 67 68 bf
       1.1356552 0.29255667 0.011332956 -0.90782934
0000e0 0b 04 b4 be 2e 40 82 be a7 78 82 be 12 b4 23 3e
       -0.35159335 -0.2543959 -0.25482675 0.1598666
0000f0 aa 2b 20 3e 90 c3 a4 bd 46 82 93 be 54 27 ed bd
       0.15641657 -0.08045113 -0.28810328 -0.11579767

l2.bias f4 [8]
000000 aa 05 21 3f ce af 0c 3f 98 e0 c1 bd 5d 2f d9 3e
       0.6289927 0.54955757 -0.09466666 0.42418948
000010 c5 38 c6 3d 74 ad 1c 3f b9 b5 96 3e 1a 7e 58 be
       0.09678797 0.6120217 0.29435518 -0.21141854

l3.weight f4 [6, 8]
000000 a2 07 b8 3e 07 08 79 bf cc df 64 be 24 df 12 bf
       0.35943323 -0.97277874 -0.22350997 -0.57371736
000010 55 4a 53 3f e8 4d 01 bf 54 5d 7f bf 75 e3 97 be
       0.82535297 -0.505095 -0.9975178 -0.29665723
000020 6b 12 21 3f c4 ab fc 3e 05 2b 52 be c3 c1 ef be
       0.6291873 0.49349797 -0.20524223 -0.46827516
000030 4b 93 86 bf 61 83 ba 3e a8 bd b2 bf 20 2d 4d bd
       -1.05137 0.3642836 -1.3964128 -0.050091863
000040 63 cf 87 bf 4e 35 5e 3f 3c 30 05 3e b3 ff 75 3f
       -1.0610164 0.86800086 0.13006681 0.9609329
000050 db 76 69 bf 09 da ab be 44 8b 65 bf 49 cb 43 be
       -0.91196984 -0.33564785 -0.8966563 -0.19120516
000060 ee e7 be 3e 68 45 98 bf d0 91 27 be 9d 6b 51 bf
       0.37286323 -1.1896181 -0.16364217 -0.8180483
000070 34 89 4f bf 01 63 70 3e 94 c8 79 3f b8 a3 bc 3d
       -0.8106873 0.23475267 0.9757168 0.092109144
000080 c8 1f 07 3b c4 5e 68 3e 05 2b dd 3d df 23 b3 3e
       0.0020618308 0.226924 0.10799221 0.34988305
000090 46 2b db 3e 7b 7a 86 bf 6e e0 3b bf ba 2f 48 3e
       0.42806453 -1.0506128 -0.7338933 0.19549456
0000a0 2b fb a1 bf 91 48 ac 3e 84 ae 01 be af 51 46 bf
       -1.2654775 0.33649114 -0.12664229 -0.7746839
0000b0 a2 19 1c be 26 c0 46 3f 6c e8 88 3e f0 aa 3f 3d
       -0.15244153 0.77636945 0.26739824 0.046793878

l3.bias f4 [6]
000000 ee ca 08 be b8 fc f4 bd db a6 97 3e f1 8d a1 3e
       -0.13358662 -0.11962265 0.29619488 0.31553605
000010 eb 7c d5 be 9a 2a 8b bd
       -0.41696867 -0.06795235
